17.84.pth (torch_old, 17375 bytes, 6 tensors)

fc1.weight f4 [37, 37]
0.09948944 0.07635411 0.037959494 -0.015099776 -0.08837897 0.10044377 0.096575044 0.21059288
0.14092611 0.10956391 0.067002736 0.04837276 -0.059240125 -0.054182805 -0.10898391 0.13572909
0.1430582 0.15216447 0.017043792 -0.096214145 0.09438505 0.22622141 0.13842593 0.19143744
0.06817071 0.18864578 0.24830075 -0.08081622 -0.09463627 -0.36704284 0.054663472 0.20358145
-0.006223017 0.013580638 -0.09031691 -0.07939998 -0.053384207 0.16821022 0.019644106 0.08512249
0.02854629 -0.044471357 0.15909646 -0.22142854 -0.1872286 -0.20147006 -0.2729922 0.040172964
0.015576564 -0.029836765 0.0658257 0.10366888 0.05105009 -0.041953254 0.09571614 0.012205349
-0.0104209175 -0.1478745 -0.052624322 -0.10452816 -0.037867915 0.100228444 -0.13097522 -0.042109065
0.11763299 0.07967932 0.47897744 0.018730184 0.118723005 0.14149413 -0.11339264 -0.027702717
-0.057515018 0.13037415 0.114230424 0.082439765 0.056817904 0.050903823 -0.02817489 -0.38014817
0.102298304 0.12644635 -0.11329091 -0.73029506 -0.09345063 0.0385965 0.060918555 -0.05830775
-0.08318707 0.08529135 0.043386992 0.08051536 0.055172592 -0.061028354 -0.088009305 0.022473644
0.023883179 -0.13864253 -0.20317231 -0.088751204 0.20588909 0.13699509 -0.19076331 -0.42462444
-0.2877168 0.049656335 0.018342542 -0.23813488 -0.5172151 -0.000872143 -0.0066108117 0.12647034
0.086705275 0.11024993 0.09195575 -0.019949714 0.024573905 0.013977617 0.043887947 0.0550809
0.04060635 0.040690728 0.08172728 -0.0011305751 -0.043931514 -0.1234482 -0.039831404 -0.014853397
-0.044781975 -0.06576153 -0.049749944 0.29837573 -0.47497815 -0.16447876 -0.0549778 -0.96096873
0.048316207 0.019757755 0.060330108 0.132348 0.08086449 0.08834545 0.18303923 0.07001073
0.024478154 -0.1474298 0.0023858312 0.00041562974 -0.033124145 0.052637648 -0.120671906 -0.18450093
-0.041249935 0.17737752 0.017425286 -0.025378063 -0.008333502 0.03516408 0.1534892 -0.035049018
-0.009227242 -0.11234939 -0.21879633 -0.004471426 -0.030540774 0.004173669 -0.013201441 0.023385193
-0.01393556 0.079994716 0.11356475 -0.13168895 0.14138764 -0.0057448386 0.031289972 0.21366432
-4.2302643e-05 0.13466258 0.038209155 -0.07617238 0.15932333 0.28644192 0.7876741 0.075416826
0.0660272 -0.04230379 0.06718635 -0.021763647 -0.017239382 -0.016835274 0.23927927 -0.03239667
-0.15331386 -0.12688306 -0.7511479 -0.073043086 -0.0014306321 -0.010987884 0.017384961 0.076081514
-0.07072869 0.10773915 0.019198136 -0.06564173 -0.10407984 0.06633299 0.0328985 0.13159545
0.1766992 0.05657184 -0.103206426 0.13207678 0.06710485 0.094080426 0.05077192 -0.034679357
-0.015966168 0.026791405 0.11970876 0.16199696 0.014551159 0.14397758 0.13780545 0.0239829
0.025883196 0.041909643 -0.20296697 0.025373455 -0.029037368 0.028058505 0.11971297 0.047412913
0.17597461 0.1082581 0.07572395 0.14223549 -0.00528586 0.06195388 -0.021315541 0.03237101
0.08800406 0.09817309 -0.12547722 0.099183135 0.19179328 0.03535355 0.34608582 -0.08818014
0.06710218 0.060097676 0.0005047414 0.1552629 0.26774278 0.024533655 -0.12469391 -0.0722083
00000000: 1fc1 cb3d 8b5f 9c3d 6a7b 1b3d 0d65 77bc
00000010: 0900 b5bd 77b5 cd3d 23c9 c53d a9a5 573e
00000020: ef4e 103e 0b63 e03d bb38 893d 8422 463d
00000030: c6a5 72bd caee 5dbd f532 dfbd 91fc 0a3e
00000040: d97d 123e 01d1 1b3e 6c9f 8b3c ec0b c5bd
00000050: f34c c13d 96a6 673e 87bf 0d3e 2d08 443e
00000060: 169d 8b3d 5c2c 413e 8d42 7e3e f982 a5bd
00000070: a9d0 c1bd 0aed bbbe cee6 5f3d a877 503e
00000080: 73ea cbbb 5381 5e3c 12f8 b8bd 759c a2bd
00000090: 66a9 5abd 4d3f 2c3e adec a03c b354 ae3d
000000a0: e9d9 e93c 9927 36bd 2fea 223e 2abe 62be
000000b0: dbb8 3fbe 2b4e 4ebe a2c5 8bbe 688c 243d
000000c0: d834 7f3c 3b6c f4bc a0cf 863d 5a50 d43d
000000d0: e619 513d 2dd7 2bbd d306 c43d f2f8 473c
000000e0: 7fbc 2abc 6a6c 17be 9a8c 57bd dc12 d6bd
000000f0: 631b 1bbd 9244 cd3d 5e1e 06be 8e7a 2cbd
00000100: 91e9 f03d e92e a33d 883c f53e 0b70 993c
00000110: 0c25 f33d d6e3 103e 673a e8bd cff0 e2bc
00000120: de94 6bbd cd80 053e a4f1 e93d 2ed6 a83d
00000130: e4b9 683d 8780 503d 07cf e6bc c8a2 c2be
00000140: c681 d13d 277b 013e 1105 e8bd 9ef4 3abf
00000150: 0b63 bfbd 5d17 1e3d bc85 793d 1bd4 6ebd
00000160: fc5d aabd 3bad ae3d 8fb6 313d 3de5 a43d
00000170: a8fc 613d def8 79bd 393e b4bd a61a b83c
00000180: a8a6 c33c 4ff8 0dbe 670c 50be 31c3 b5bd
00000190: 97d4 523e 7148 0c3e 7557 43be 6068 d9be
000001a0: 9e4f 93be 7164 4b3d 1943 963c a1d9 73be
000001b0: 3568 04bf 87a0 64ba 829f d8bb 7181 013e
000001c0: 8992 b13d b7ca e13d 4c53 bc3d 956d a3bc
000001d0: 374f c93c 6002 653c d9c3 333d 839c 613d
000001e0: d852 263d 52ab 263d a260 a73d ce2f 94ba
000001f0: 88f1 33bd 69d2 fcbd 4126 23bd aa5b 73bc
00000200: 4e6d 37bd fbad 86bd 99c6 4bbd b4c4 983e
00000210: 5630 f3be 1f6d 28be 6730 61bd 0c02 76bf
00000220: 37e7 453d 04db a13c b41c 773d 3c86 073e
00000230: 489c a53d 76ee b43d a36e 3b3e c961 8f3d
00000240: 6986 c83c d6f7 16be 9b5b 1c3b e1e8 d939
00000250: 2fad 07bd 939a 573d d522 f7bd d0ed 3cbe
00000260: b1f5 28bd 74a2 353e 79bf 8e3c a8e5 cfbc
00000270: 3e89 08bc 3608 103d 462c 1d3e 8f8f 0fbd
00000280: dc2d 17bc 7017 e6bd 250c 60be 0a85 92bb
00000290: a530 fabc 46c3 883b db4a 58bc 4e92 bf3c
000002a0: fa51 64bc 45d4 a33d a394 e83d 78d9 06be
000002b0: ecc7 103e 333f bcbb ea29 003d d2ca 5a3e
000002c0: 1e6e 31b8 fde4 093e 3481 1c3d 4400 9cbd
000002d0: a825 233e 84a8 923e 03a5 493f 2374 9a3d
000002e0: 4539 873d bd46 2dbd ff98 893d ad49 b2bc
000002f0: 9b39 8dbc 21ea 89bc a005 753e 5fb2 04bd
00000300: 4ffe 1cbe a2ed 01be 3b4b 40bf 9d97 95bd
00000310: 0c84 bbba 8706 34bc e86a 8e3c a0d0 9b3d
00000320: 34da 90bd 58a6 dc3d 6945 9d3c 2c6f 86bd
00000330: d027 d5bd 97d9 873d 94c0 063d f5c0 063e
00000340: a3f0 343e e0b7 673d e45d d3bd 233f 073e
00000350: 456e 893d 3dad c03d 37f6 4f3d f10b 0ebd
00000360: 7bcb 82bc a679 db3c de29 f53d 88e2 253e
00000370: fc67 6e3c dc6e 133e df1c 0d3e c977 c43c
00000380: ff08 d43c 72a9 2b3d 93d6 4fbe fedb cf3c
00000390: c6df edbc f3da e53c 132c f53d 0b34 423d
000003a0: b032 343e 6cb6 dd3d 2915 9b3d 2ea6 113e
000003b0: 0235 adbb 5ac3 7d3d ee9d aebc 7797 043d
000003c0: 793b b43d f90e c93d 1a7d 00be 8720 cb3d
000003d0: 7565 443e e2ce 103d 2932 b13e ca97 b4bd
000003e0: de6c 893d fb28 763d 9f50 043a 3dfd 1e3e
000003f0: 9515 893e cefa c83c 855f ffbd f2e1 93bd

fc1.bias f4 [37]
0.28363702 -0.09579793 0.14892404 -0.09966563 0.0723292 0.04332088 0.12282455 0.100667775
0.15653178 0.117167346 0.0839497 0.2549804 -0.1764418 0.02192128 -0.020495938 0.317754
0.12575015 0.05356078 -0.027129259 -0.050378256 0.33960003 0.07328159 0.1628918 0.0763532
0.2585388 0.22518173 0.0078086145 0.15546946 0.087456435 0.16161138 0.117281675 0.051666584
-0.11371915 -0.25539422 0.052246176 0.033840444 0.20145147
00000000: df38 913e b531 c4bd 8b7f 183e 7e1d ccbd
00000010: 5521 943d 3c71 313d 708b fb3d e82a ce3d
00000020: de49 203e 6ff5 ef3d d2ed ab3d ca8c 823e
00000030: 29ad 34be 4294 b33c 19e7 a7bc a7b0 a23e
00000040: a6c4 003e 8c62 5b3d 2e3e debc 6e59 4ebd
00000050: 0ee0 ad3e a914 963d 1ccd 263e 115f 9c3d
00000060: 335f 843e 0a96 663e 68df ff3b 6333 1f3e
00000070: 5c1c b33d 747d 253e 6031 f03d 57a0 533d
00000080: 96e5 e8bd 08c3 82be 1600 563d 479c 0a3d
00000090: 4b49 4e3e

fc2.weight f4 [64, 37]
0.15545925 -0.07037995 -0.025423422 0.22878878 -0.0016419842 -0.09259055 0.18107845 0.18711895
0.13561855 0.07000932 0.19186836 -0.37434736 -0.052919973 0.026608186 0.11796873 -0.13494305
-0.18584006 -0.0653015 -0.17867245 0.05499808 0.13524535 0.19679303 -0.037062835 -0.16228476
-0.112516925 -0.09959964 0.33328578 -0.28574216 -0.13756242 -0.052282 0.059670936 -0.078899674
-0.028744482 0.1838969 -0.10757082 -0.013206894 0.03915995 -0.25115237 0.020133471 -0.11136302
-0.15385388 0.0014634874 0.065387376 -0.24253617 0.16406842 0.15215117 0.12602875 -0.09838452
0.1936757 -0.1399663 0.0042873304 -0.027502924 -0.017102508 0.08749516 -0.056253366 0.07875672
0.002410398 -0.14289424 -0.043233223 -0.10413772 0.085007384 0.12076572 0.16092831 -0.13757941
0.20515361 0.06688848 0.06041578 0.14831407 0.03686225 -0.17214686 -0.13730682 -0.0028715876
0.17530346 0.052453555 0.1461798 0.097128615 0.29555774 -0.34011176 0.14689578 0.068101786
0.014153263 -0.0037221834 0.09502015 -0.046991486 0.112011276 0.000327745 -0.20372699 -0.1537316
-0.08598297 0.114244886 0.0808508 -0.17817098 0.17805624 -0.04222374 0.10860009 -0.273278
0.036109548 -0.08620355 -0.14492702 -0.10272843 -0.12142576 -0.05538655 -0.060719676 0.035727397
0.06931354 -0.018693568 -0.025028778 -0.1352893 0.092715174 -0.30161664 -0.0391257 -0.07458038
-0.019598681 -0.26857638 0.2562754 0.0757164 -0.10659367 0.034770686 0.075027406 0.14636746
-0.23614675 -0.023978058 -0.019969065 -0.12898773 0.11435857 -0.05580005 0.060842622 0.030089526
-0.027724368 -0.27569124 -0.10009983 0.027108962 -0.10356546 0.028695459 0.13581826 -0.1991178
0.035060726 0.069871835 -0.106160626 0.092213795 0.06936222 -0.15529047 -0.08266024 0.12796766
-0.07520933 0.16019419 0.14983532 0.0493444 -0.10038825 0.25585485 0.07784091 0.31460622
-0.031014549 0.018644776 0.10645214 0.061731156 -0.0008426924 -0.20834926 0.070134565 -0.008501071
-0.059609443 -0.014821992 0.025271248 0.0845692 -0.1769952 0.098297395 0.14976105 -0.1433002
-0.06110405 0.120008074 0.116333775 -0.16228345 -0.017481465 0.23025437 -0.21751714 -0.16246751
-0.14716022 0.15824926 -0.41230357 -0.016827509 -0.038789753 0.020707618 0.09332508 -0.0041176756
0.1123234 0.03741043 -0.11960455 -0.2975336 0.26464915 -0.008119049 -0.22126104 0.13377741
-0.0024459166 -0.023461688 -0.05260967 0.20683457 0.015382323 0.04180344 0.019788157 -0.012710539
0.05271191 -0.069175355 -0.06342388 0.1280773 -0.034530666 0.010597968 -0.13985804 0.0064616585
-0.13400693 0.04285622 0.05194463 0.0938857 -0.14361422 -0.03564051 0.060958754 0.00046948247
-0.14440177 0.18736054 0.124569274 0.051238425 0.04292301 0.07125639 0.25480103 0.11645502
-0.2756236 -0.2998975 0.11346048 0.02628695 0.06933949 -0.059427213 0.0908014 0.23195215
0.07931222 0.050196957 0.048010647 -0.22458206 -0.108464904 -0.1358122 0.18532188 -0.018770497
-0.12542944 0.14662169 -0.04317124 0.10465285 0.07982614 -0.019081296 -0.06438768 -0.09465536
0.050909057 0.20572259 0.034229375 -0.12170987 0.1461939 0.060148094 -0.19323733 -0.17241342
00000000: b630 1f3e 5d23 90bd c844 d0bc 9b47 6a3e
00000010: d937 d7ba 1da0 bdbd a16c 393e 1c9c 3f3e
00000020: 97df 0a3e 0c61 8f3d 2479 443e 75aa bfbe
00000030: 9dc2 58bd 69f9 d93c 9799 f13d 832e 0abe
00000040: db4c 3ebe cbbc 85bd e9f5 36be ab45 613d
00000050: c27d 0a3e 1d84 493e 33cf 17bd fa2d 26be
00000060: 466f e6bd e5fa cbbd 6fa4 aa3e cc4c 92be
00000070: 2add 0cbe a725 56bd 8369 743d 2796 a1bd
00000080: 8c79 ebbc 784f 3c3e 174e dcbd ba61 58bc
00000090: 2f66 203d 0b97 80be f3ee a43c 4c12 e4bd
000000a0: df8b 1dbe 7dd2 bf3a d1e9 853d 675b 78be
000000b0: 8d01 283e 84cd 1b3e ae0d 013e d37d c9bd
000000c0: ec52 463e 5353 0fbe bc7c 8c3b d04d e1bc
000000d0: 8f1a 8cbc aa30 b33d ee69 66bd 344b a13d
000000e0: c5f7 1d3b de52 12be 5215 31bd 2846 d5bd
000000f0: 5a18 ae3d 0554 f73d 64ca 243e 9ee1 0cbe
00000100: ca13 523e d4fc 883d 8976 773d a5df 173e
00000110: dffc 163d 4447 30be 299a 0cbe 3f31 3cbb
00000120: c082 333e 8ad9 563d 28b0 153e 5eeb c63d
00000130: 5853 973e 2123 aebe d96b 163e f378 8b3d
00000140: 16e3 673c e0ef 73bb ed99 c23d 257a 40bd
00000150: 2b66 e53d 30d5 ab39 cf9d 50be d16b 1dbe
00000160: d717 b0bd 39f9 e93d 1b95 a53d 7472 36be
00000170: 6054 363e cdf2 2cbd b969 de3d 18eb 8bbe
00000180: 9be7 133d 7d8b b0bd c067 14be 4863 d2bd
00000190: 12ae f8bd 02dd 62bd 32b5 78bd e456 123d
000001a0: 42f4 8d3d 4123 99bc 2709 cdbc 4789 0abe
000001b0: 74e1 bd3d 7f6d 9abe 4542 20bd 99bd 98bd
000001c0: 6a8d a0bc d882 89be 8736 833e 3311 9b3d
000001d0: c84d dabd b56b 0e3d f8a7 993d 5ae1 153e
000001e0: 74d0 71be a26d c4bc 2a96 a3bc 5c15 04be
000001f0: d334 ea3d 988e 64bd 1d36 793d 4f7e f63c
00000200: 371e e3bc 6727 8dbe 2401 cdbd 9d13 de3c
00000210: 211a d4bd bd12 eb3c f113 0b3e 89e5 4bbe
00000220: d69b 0f3d f718 8f3d be6a d9bd 96da bc3d
00000230: c80d 8e3d 7704 1fbe c649 a9bd f409 033e
00000240: 5907 9abd f209 243e 6e6e 193e 5b1d 4a3d
00000250: 5b98 cdbd 68ff 823e 0e6b 9f3d 1114 a13e
00000260: 3912 febc eebc 983c 9403 da3d cfd9 7c3d
00000270: 21e8 5cba 8259 55be b6a2 8f3d 1348 0bbc
00000280: 0829 74bd f1d7 72bc a605 cf3c 9e32 ad3d
00000290: 3b3e 35be 2550 c93d f65a 193e 4abd 12be
000002a0: 3e48 7abd cbc6 f53d 6740 ee3d a22d 26be
000002b0: 4a35 8fbc cdc7 6b3e d0bc 5ebe e25d 26be
000002c0: 2bb1 16be 180c 223e 7419 d3be d8d9 89bc
000002d0: 01e2 1ebd 06a3 a93c 3821 bf3d 91ed 86bb
000002e0: d009 e63d ae3b 193d 3bf3 f4bd 5356 98be
000002f0: 1880 873e c205 05bc 4192 62be f2fc 083e
00000300: ac4b 20bb ba32 c0bc 3d7d 57bd 71cc 533e
00000310: 2406 7c3c 153a 2b3d c61a a23c dd3f 50bc
00000320: 72e8 573d cfab 8dbd 61e4 81bd b226 033e
00000330: 0770 0dbd 19a3 2d3c f236 0fbe 52bc d33b
00000340: 1d39 09be 018a 2f3d e4c3 543d 2547 c03d
00000350: 9b0f 13be c9fb 11bd e3af 793d df24 f639
00000360: 0fde 13be 71db 3f3e 2d1e ff3d 62df 513d
00000370: 0ad0 2f3d dfee 913d 4875 823e f87f ee3d
00000380: 891e 8dbe 2a8c 99be f85d e83d bb57 d73c
00000390: dd01 8e3d f369 73bd 16f6 b93d dd84 6d3e
000003a0: 726e a23d 539b 4d3d d0a6 443d d7f8 65be
000003b0: d922 debd 5a12 0bbe 05c5 3d3e 96c4 99bc
000003c0: 9370 00be ff23 163e 53d4 30bd 3c54 d63d
000003d0: e37b a33d 6150 9cbc b0dd 83bd abda c1bd
000003e0: 0486 503d f1a8 523e 1a34 0c3d 0643 f9bd
000003f0: dbb3 153e d95d 763d 02e0 45be 258d 30be

fc2.bias f4 [64]
0.21056247 0.052286893 -0.1840616 -0.06819237 0.08009316 -0.08152127 -0.08639743 0.14030014
0.005443085 0.26573858 -0.07758723 -0.07605531 0.07213197 -0.095739 0.20808566 0.1845586
0.13709743 0.048712797 0.14540069 0.11185766 0.0017124997 0.035280097 0.17643544 0.09753601
-0.15269691 0.29101843 0.024425764 0.22471459 -0.029953316 -0.08677596 -0.11133672 0.1495756
-0.021222783 0.19501607 0.16432197 0.16082107 -0.044980373 -0.10191799 -0.09076898 -0.026961999
0.08729815 -0.05509882 0.079041734 -0.10562579 -0.05802172 -0.22135758 -0.016743757 0.18101229
-0.044372544 0.23929496 -0.028926907 -0.0788063 -0.13525897 0.06367813 0.027595727 0.17472796
0.079221055 0.17632349 -0.096246496 0.2752406 -0.1176595 -0.10272684 0.20145774 0.028748486
00000000: b09d 573e c82a 563d a57a 3cbe 71a8 8bbd
00000010: e207 a43d a0f4 a6bd 23f1 b0bd d7aa 0f3e
00000020: e85b b23b e30e 883e 0ee6 9ebd e3c2 9bbd
00000030: edb9 933d cf12 c4bd 6814 553e eefc 3c3e
00000040: 4563 0c3e 1287 473d ebe3 143e a115 e53d
00000050: f475 e03a dd81 103d 7eab 343e f6c0 c73d
00000060: 945c 1cbe 5e00 953e 8a18 c83c 951b 663e
00000070: a860 f5bc 98b7 b1bd 8204 e4bd 592a 193e
00000080: 67db adbc 4bb2 473e 0544 283e 47ae 243e
00000090: 573d 38bd 61ba d0bd 16e5 b9bd 69df dcbc
000000a0: 5fc9 b23d 4daf 61bd a2e0 a13d 5652 d8bd
000000b0: 2fa8 6dbd 90ab 62be 342a 89bc 495b 393e
000000c0: fcbf 35bd bd09 753e 1ff8 ecbc 3365 a1bd
000000d0: 5481 0abe ae69 823d 6f10 e23c e3eb 323e
000000e0: a63e a23d 258e 343e e21c c5bd 56ec 8c3e
000000f0: 77f7 f0bd 7362 d2bd f04a 4e3e f281 eb3c

fc3.weight f4 [4, 64]
0.15922418 0.21927291 -0.120294996 -0.25691894 0.101691194 0.28562108 0.15254581 0.13432986
-0.043791223 0.19475175 0.04095596 -0.013467347 0.086435884 0.17221895 0.09882802 0.2272023
0.5295568 0.095076256 0.08668821 -0.27358595 0.19485992 0.03868272 0.13386633 -0.2547243
-0.089449435 0.12531997 0.08463677 0.18045533 0.13418 0.37046236 0.09947565 -0.019672958
0.35730174 0.08946645 0.2111967 0.12762429 -0.06491385 0.024240788 0.09827516 -0.060005106
-0.006369914 -0.15966234 0.008865189 0.048500977 0.058378473 -0.07202877 -0.12825142 -0.0029202453
0.15504843 0.033382908 0.19792853 0.20275103 0.17495224 -0.08394041 0.08189902 0.15937011
0.10947641 0.009963639 -0.15237392 0.10707465 -0.3434224 -0.19790801 0.19925587 0.30130208
0.25544587 0.32410648 -0.018539546 -0.17256397 0.21935986 -0.082509354 0.19746451 0.13827161
0.04933821 0.1527985 0.025503369 -0.07927164 0.064954646 0.26601243 0.019980889 0.1379005
0.21730475 0.14775588 -0.035640847 -0.11237896 0.14117108 -0.11183459 0.15801163 -0.015159773
-0.033650436 0.10998773 -0.0110849505 0.1539198 0.14399953 0.110263705 0.07010417 0.09925516
0.10854903 -0.01138401 0.1555531 0.10751093 -0.18072131 -0.06151168 -0.11724747 0.0675915
-0.021763641 -0.08376448 0.17795454 -0.016954083 -0.13295151 0.08136827 -0.05581905 0.17539375
0.14855902 0.11013693 0.060736865 0.30320027 0.094585806 -0.029801367 0.13952632 0.094475254
0.1300473 0.05203123 -0.09192832 0.077381045 -0.14080836 0.0007863496 0.010584182 0.33005178
0.16143362 -0.0027674343 -0.11449483 0.11439889 0.16437787 0.10136985 0.20559436 0.05810565
0.17059518 0.008494645 0.160462 -0.0229663 0.080573685 -0.2687293 0.022091152 0.39734045
-0.03821803 0.12768582 -0.16584617 -0.085684545 -0.05855755 -0.16414478 -0.07358698 -0.008135337
0.05951145 0.06369803 0.1164948 0.15883361 0.16345407 0.24565844 0.08229864 -0.03401762
0.10011663 0.12867242 0.21333979 -0.022322854 0.68131685 -0.043024175 0.11510407 0.20585974
-0.1458494 -0.17398591 0.122442715 0.16359095 -0.047109894 -0.13968676 0.04810505 0.26799172
0.21451272 0.16886933 0.31484878 0.09204111 0.57989407 -0.16652863 0.030197816 0.5139516
0.089585 -0.023462726 0.19643903 0.15124819 -0.17046471 0.0063064247 0.05792371 -0.03092724
0.20177779 -0.0042290078 -0.11283797 -0.3590525 0.46130264 -0.20799439 0.16483468 0.3077187
0.056590166 0.029699039 -0.1283181 0.62356794 -0.00091525994 -0.016167974 0.11387074 0.02810131
0.16906306 0.079975225 0.19506332 -0.629723 0.1945634 -0.1032948 0.08164357 0.005765813
0.06350174 0.07418446 -0.018267788 0.08531522 0.0049348213 0.11167571 -0.045787394 0.11886171
0.16721736 0.139468 0.10807084 0.1231732 -0.12295834 -0.25278038 -0.004123448 -0.034099285
-0.124459825 0.015823442 0.1688538 -0.17053984 -0.05693881 -0.10442326 0.039997485 0.19522658
-0.010453406 0.18621808 -0.11621755 -0.18864626 0.055228204 0.14303298 0.18225387 0.22364596
0.30049744 0.30097818 -0.047931325 0.013114418 -0.29823142 -0.09525375 0.1621862 0.05430766
00000000: aa0b 233e 1489 603e 395d f6bd e18a 83be
00000010: 7943 d03d ed3c 923e f834 1c3e c48d 093e
00000020: 6d5e 33bd 016d 473e 70c1 273d 26a6 5cbc
00000030: 4c05 b13d 2a5a 303e 5866 ca3d b8a7 683e
00000040: 0991 073f 57b7 c23d 9789 b13d 7513 8cbe
00000050: 5c89 473e c671 1e3d 4114 093e 396b 82be
00000060: 4431 b7bd e153 003e 0b56 ad3d 48c9 383e
00000070: 7b66 093e 3ead bd3e e4b9 cb3d 2f29 a1bc
00000080: 41f0 b63e 303a b73d f343 583e f1af 023e
00000090: 8df1 84bd 9e94 c63c 7d44 c93d eac7 75bd
000000a0: b6ba d0bb 867e 23be 4c3f 113c f6a8 463d
000000b0: 441e 6f3d d283 93bd 5754 03be 9661 3fbb
000000c0: 04c5 1e3e 84bc 083d c7ad 4a3e f79d 4f3e
000000d0: ae26 333e f3e8 abbd acba a73d eb31 233e
000000e0: 2b35 e03d 883e 233c e907 1cbe f449 db3d
000000f0: 10d5 afbe 66a8 4abe bb09 4c3e 4444 9a3e
00000100: cdc9 823e 49f1 a53e 3fe0 97bc 9cb4 30be
00000110: df9f 603e aafa a8bd 2334 4a3e 1397 0d3e
00000120: dd16 4a3d 3677 1c3e 71ec d03c 2b59 a2bd
00000130: f106 853d c832 883e f6ae a33c ca35 0d3e
00000140: 2385 5e3e 514d 173e 23fc 11bd f126 e6bd
00000150: 278f 103e 8909 e5bd cdcd 213e b260 78bc
00000160: 0ad5 09bd 3f41 e13d a79d 35bc 279d 1d3e
00000170: 9d74 133e f0d1 e13d c692 8f3d 4a46 cb3d
00000180: f44e de3d 0084 3abc 5049 1f3e b12e dc3d
00000190: 020f 39be acf3 7bbd 711f f0bd 6a6d 8a3d
000001a0: aa49 b2bc b68c abbd b739 363e 4ae3 8abc
000001b0: 7124 08be 68a4 a63d 84a2 64bd 6b9a 333e
000001c0: db1f 183e 798f e13d 38c7 783d 113d 9b3e
000001d0: 34b6 c13d ff21 f4bc fddf 0e3e 3e7c c13d
000001e0: 1f2b 053e b31e 553d ea44 bcbd f479 9e3d
000001f0: 1130 10be 0723 4e3a 4769 2d3c 8cfc a83e
00000200: db4e 253e d85d 35bb 447c eabd f749 ea3d
00000210: ac52 283e ff9a cf3d 5487 523e 3100 6e3d
00000220: 81b0 2e3e 202d 0b3c 2750 243e d223 bcbc
00000230: d103 a53d e396 89be 81f8 b43c 3570 cb3e
00000240: 828a 1cbd 12c0 023e 94d3 29be 617b afbd
00000250: 0bda 6fbd 9215 28be c5b4 96bd 144a 05bc
00000260: 47c2 733d 1d74 823d d394 ee3d 47a5 223e
00000270: 8160 273e e38d 7b3e 308c a83d 0f56 0bbd
00000280: f309 cd3d b4c2 033e bf75 5a3e 6bde b6bc
00000290: c86a 2e3f 1e3a 30bd afbb eb3d e5cc 523e
000002a0: 8c59 15be 5d29 32be 3fc3 fa3d 6384 273e
000002b0: 4ef6 40bd 0c0a 0fbe cd09 453d 3636 893e
000002c0: 39a9 5b3e 15ec 2c3e dc33 a13e 0d80 bc3d
000002d0: f073 143f 7b86 2abe 6961 f73c 5592 033f
000002e0: 5778 b73d e734 c0bc 5027 493e cee0 1a3e
000002f0: 4d8e 2ebe 20a6 ce3b 6a41 6d3d 205b fdbc
00000300: d69e 4e3e 7d93 8abb 9817 e7bd bbd5 b7be
00000310: dc2f ec3e 7bfc 54be 6cca 283e 4e8d 9d3e
00000320: 17cb 673d 664b f33c d265 03be 26a2 1f3f
00000330: 0eee 6fba b372 84bc 1035 e93d b834 e63c
00000340: de1e 2d3e 0dca a33d aebe 473e 8735 21bf
00000350: a13b 473e 398c d3bd be34 a73d 25ef bc3b
00000360: 330d 823d 06ee 973d 54a6 95bc bfb9 ae3d
00000370: 48b4 a13b 3cb6 e43d 908b 3bbd c56d f33d
00000380: 073b 2b3e b3d0 0e3e 3f54 dd3d 3b42 fc3d
00000390: 95d1 fbbd 6e6c 81be fd1d 87bb b1ab 0bbd
000003a0: cbe4 febd 2aa0 813c 03e8 2c3e ffa1 2ebe
000003b0: ab38 69bd dddb d5bd 67d4 233d 7ae9 473e
000003c0: c344 2bbc f4af 3e3e 7803 eebd 7c2c 41be
000003d0: f836 623d 3d77 123e c2a0 3a3e 7203 653e
000003e0: cdda 993e d019 9a3e a353 44bd dbdd 563c
000003f0: cab1 98be 6614 c3bd 2414 263e b571 5e3d

fc3.bias f4 [4]
0.09969248 -0.0010280916 0.1769514 0.09787674
00000000: 922b cc3d 08c1 86ba bf32 353e 9a73 c83d
